models/bicep_curl_pytorch_model.pt (torch, 18290 bytes, 6 tensors)

layer1.weight f4 [64, 25]
0	0xbda45417	-0.08023851
1	0xbd0e5c9a	-0.03475628
2	0xbc9a619a	-0.018845368
3	0x3cefb467	0.029260827
4	0xbdcc21d0	-0.09967387
5	0xbe300ed3	-0.17193155
6	0x3dbeac5d	0.093102194
7	0xbd937767	-0.072005086
8	0xbde2f62a	-0.11082108
9	0xbc976dda	-0.018484998
10	0xbe3e76cf	-0.1860001
11	0x3deb9917	0.11503809
12	0x3a1bfb33	0.00059502124
13	0x3deaf023	0.11471584
14	0x3dbe5153	0.09292855
15	0x3dcd6727	0.100294404
16	0xbdecdabd	-0.115651585
17	0x3e3ac775	0.1824015
18	0x3e4e3bf0	0.20140052
19	0x3e69c713	0.22829847
20	0x3db99b51	0.090628274
21	0x3dcbd922	0.09953524
22	0x3ad792e3	0.0016446974
23	0x3eeedc52	0.46652466
24	0x3dc84fad	0.09780822
25	0x3d342880	0.043983936
26	0xbc444e4d	-0.011981559
27	0xbe2debb7	-0.1698445
28	0x3de130c0	0.109956264
29	0xbe40089a	-0.18753281
30	0xbdfb2c1a	-0.12264271
31	0x3e286a20	0.16446733
32	0xbe41d180	-0.18927574
33	0x3e209890	0.15683198
34	0xbd68dd6d	-0.056851793
35	0xbd7ffce0	-0.06249702
36	0x3e4535e7	0.19258843
37	0xbe3434c8	-0.1759826
38	0x3e40ab8b	0.18815438
39	0x3de8e410	0.113716245
40	0x3ddbe13a	0.10736318
41	0x3db60433	0.0888752
42	0xbcd4ed4d	-0.02599206
43	0x3e6f8d6b	0.2339379
44	0xbbab851e	-0.0052343747
45	0x3e5979f7	0.21237932
46	0x3b097b85	0.0020978164
47	0x3e165b3b	0.14683239
48	0x3ea6b279	0.3255804
49	0x3df4e673	0.11958017
50	0x3ddc0927	0.10743933
51	0xbd407b27	-0.046992447
52	0xbe026512	-0.12733868
53	0xbe0f046d	-0.13966532
54	0x3e2e11c2	0.16998962
55	0xbc753e33	-0.014968443
56	0x3c0bd54d	0.008534742
57	0xbe1fd560	-0.1560874
58	0x3bd9ed9a	0.0066506388
59	0x3e0fd5e2	0.14046434
60	0xbde2f870	-0.11082542
61	0x3e0b7f92	0.13622883
62	0xbd1e32ed	-0.038622785
63	0x3db01177	0.08597081
64	0xbde7aa23	-0.11311748
65	0xbdc32bc3	-0.09529831
66	0x3db5a420	0.08869195
67	0x3e13e3a3	0.14442305
68	0x3e594a89	0.21219839
69	0x3ca7e2de	0.02049392
70	0x3d53305f	0.051559802
71	0x3d17227c	0.03689812
72	0x3de42a82	0.1114092
73	0x3ef3f3d5	0.47646967
74	0x3dbf908e	0.093537435
75	0xbe2521a8	-0.1612612
76	0x3d61db53	0.055140804
77	0x3c6347cd	0.013872099
78	0xbe399e7a	-0.1812686
79	0x3dcb11d0	0.09915507
80	0xbdcf60f7	-0.101259165
81	0xbdf46e87	-0.11935144
82	0x3bbff167	0.005857635
83	0x3c6875b3	0.014188218
84	0xbe486cb3	-0.19572715
85	0xbb489533	-0.0030606508
86	0x3d911e73	0.07085886
87	0x3e25bfdb	0.16186468
88	0xbde1142d	-0.10990176
89	0xbe28296f	-0.16422056
90	0x3e30fdb7	0.17284285
91	0xbe1f0390	-0.15528703
92	0x3c82894d	0.01593461
93	0xbe35e09e	-0.17761466
94	0xbd6c3892	-0.057671137
95	0x3e35f7b9	0.1777028
96	0x3e5deaad	0.21671553
97	0xbe90c57f	-0.28275678
98	0xbe26216a	-0.16223684
99	0xbe4a399e	-0.19748542
100	0xbdbbf893	-0.09178271
101	0xbe496223	-0.19666342
102	0xbe17f823	-0.1484075
103	0xbe302cd8	-0.17204607
104	0xbe175333	-0.14777832
105	0x3d2f6b13	0.042826723
106	0x3d9be4d7	0.07612007
107	0x3d0fde8d	0.03512435
108	0x3d9694d3	0.07352605
109	0xbdc8c687	-0.09803491
110	0xbdfec8ba	-0.12440629
111	0xbe2dc08d	-0.16967984
112	0xbd851ad3	-0.06499257
113	0xbd1d4de7	-0.03840437
114	0xbde8046a	-0.11328967
115	0xbd1615d3	-0.036641907
116	0xbdba7590	-0.091044545
117	0x3c4fb9b3	0.0126785515
118	0xbd4a56ae	-0.04939907
119	0x3bf22afd	0.0073903785
120	0xbe5f950a	-0.21834198
121	0xbe7be564	-0.24599224
122	0xbe0ec7e5	-0.13943441
123	0xbe8d7422	-0.27627665
124	0x3aba180a	0.0014197838
125	0x3d9ee457	0.07758396
126	0x3defb280	0.11703968
127	0x3d310287	0.0432153
128	0x3caddca7	0.02122338
129	0xbcdb2173	-0.026749348
130	0x3e2eb85f	0.1706252
131	0xbe0c2325	-0.13685282
132	0xbe4a5c9b	-0.19761889
133	0x3e298c9a	0.16557541
134	0xbe0668a8	-0.1312586
135	0xbdd904b0	-0.10596597
136	0xbddc24f7	-0.10749238
137	0x3e422cb2	0.18962362
138	0xbe23fe5f	-0.16015004
139	0xbc11359a	-0.008862877
140	0xbd3a58e7	-0.04549494
141	0xbe47b1ba	-0.19501391
142	0x3de6301a	0.112396434
143	0x3e2a167b	0.16610138
144	0xbe6ac6b0	-0.22927356
145	0xbeb0087b	-0.3438147
146	0xbdd1b4b4	-0.102395445
147	0xbdb57ad1	-0.08861316
148	0xbdffc8a4	-0.12489441
149	0x3de47b9b	0.11156388
150	0x3d80d920	0.06291413
151	0x3e1a4d1f	0.15068482
152	0xbdf8b850	-0.1214453
153	0xbe3fedc3	-0.18743043
154	0x3e15a068	0.14611971
155	0x3deb6297	0.11493414
156	0xbd6578a0	-0.05602324
157	0x3e43b64b	0.19112508
158	0xbe1d3088	-0.15350544
159	0x3e1906d7	0.14944015
160	0xbe14f1ea	-0.14545408
161	0x3de22570	0.11042297
162	0x3e1c9468	0.15290987
163	0x3d20ade7	0.039228346
164	0xbe1ce72b	-0.15322559
165	0x3e08aca2	0.13347104
166	0xbdb94cb0	-0.0904783
167	0x3e1e93ed	0.15486117
168	0xbeb0ad15	-0.3450705
169	0xbe56f6e7	-0.20992623
170	0x3e15c00f	0.14624046
171	0x3e704245	0.2346278
172	0xbd797c41	-0.060909513
173	0xbe4289a1	-0.18997814
174	0xbe7dae47	-0.24773513
175	0xbe45b5f3	-0.1930769
176	0x3bda3d9a	0.0066601755
177	0xbd4498cd	-0.047997285
178	0xbe21a9b2	-0.1578739
179	0xbd811fa3	-0.06304862
180	0x3d861bd0	0.065482736
181	0x3c8fa40d	0.01753428
182	0x3dc17faa	0.09448178
183	0x3e404c85	0.1877919
184	0x3e325810	0.17416406
185	0xbd71919a	-0.058976747
186	0xbdf2da60	-0.11858058
187	0xbdda03e7	-0.106452756
188	0x3e46462f	0.1936271
189	0xbe497125	-0.19672067
190	0xbe3e5185	-0.18585785
191	0x3d815a43	0.06316044
192	0x3e3e6bfb	0.18595879
193	0x3c08eced	0.008357269
194	0xbe9bcc6f	-0.30429408
195	0xbe386294	-0.18006355
196	0xbea19bef	-0.3156428
197	0xbd805236	-0.062656805
198	0xbc4bfbce	-0.012450172
199	0xbcc0f7b1	-0.023555608
200	0xbe3ae2dd	-0.18250604
201	0x3e1bedda	0.15227452
202	0xbd8d9937	-0.06913989
203	0xba184333	-0.00058083533
204	0xbe0c1f48	-0.13683808
205	0x3d9c9c8a	0.07647045
206	0xbe21db2b	-0.15806262
207	0xbe1fa4b0	-0.15590167
208	0xbe3ed0cf	-0.18634342
209	0x3bac9767	0.005267072
210	0x3db10010	0.0864259
211	0xbbe96833	-0.007123017
212	0x3cf0fbda	0.029416967
213	0xbdbbd8a3	-0.091721795
214	0xbe4c3977	-0.19943796
215	0xbded5850	-0.1158911
216	0xbcfda367	-0.030961705
217	0x3cd346cd	0.025790596
218	0x3e08b8ac	0.13351697
219	0xbc13db37	-0.009024433
220	0xbe908bd3	-0.28231677
221	0xbe00b904	-0.12570578
222	0x3cd31bb2	0.025770042
223	0xbe5c74fa	-0.21528998
224	0xbe4d4338	-0.20045173
225	0x3e3c251d	0.18373533
226	0xbd1013ba	-0.035175063
227	0xbe44e32d	-0.19227286
228	0xbdd9586a	-0.10612567
229	0x3e1d58a0	0.15365839
230	0x3d57009a	0.052490808
231	0x3b5d18cd	0.0033736706
232	0xbe29cc88	-0.16581929
233	0x3d2c06a7	0.04199853
234	0x3e0ff29b	0.1405739
235	0x3e1389af	0.14407991
236	0x3ca8d0da	0.0206074
237	0x3ac48800	0.0014994144
238	0xbe1ee297	-0.15516125
239	0xbcf27a8d	-0.029599452
240	0xbdd172c7	-0.1022697
241	0x3e153ccf	0.14573978
242	0x3e2acaf7	0.16678987
243	0xbe8c1274	-0.2735783
244	0x3e0df5c9	0.13863291
245	0xba91b012	-0.0011115095
246	0x3e8298f7	0.25507328
247	0xbe856b07	-0.26058218
248	0xbcc0df97	-0.023544116
249	0xbdfecbd7	-0.12441223
250	0xbd3972da	-0.045275547
251	0x3cc9479a	0.024570275
252	0x3be4cecd	0.0069826604
253	0x3cd45f9a	0.025924493
254	0xbe120892	-0.14261082
255	0xbe465b92	-0.19370869

layer1.bias f4 [64]
0	0x3d414184	0.04718162
1	0x3e4496f9	0.19198216
2	0x3d84a0c0	0.06475973
3	0x3d34b0ff	0.04411411
4	0xbd803c39	-0.062614866
5	0xbd982c4a	-0.074303225
6	0xbe2379b9	-0.15964402
7	0x3e386252	0.18006256
8	0x3dbf6e36	0.09347193
9	0xbbacd80c	-0.005274778
10	0x3e25490f	0.16141151
11	0x3e2411f6	0.16022477
12	0x3d85cd08	0.06533247
13	0x3e1d662f	0.15371011
14	0x3e189c9b	0.1490349
15	0x3b758b59	0.003746709
16	0x3e3c3bca	0.18382183
17	0xbce2f801	-0.027706148
18	0x3deeadca	0.116542414
19	0x3d0a17ca	0.033714093
20	0xbdb9adfb	-0.09066387
21	0x3e027db8	0.1274327
22	0x3e1867c4	0.14883333
23	0x3ddbb693	0.10728183
24	0x3b557292	0.003256951
25	0x3e5c519c	0.21515507
26	0x3e3afc81	0.18260385
27	0xbda777ca	-0.08177145
28	0x3e336c8d	0.17521878
29	0x3e5ad773	0.2137125
30	0x3e52241d	0.20521589
31	0xbe4ccc8b	-0.19999902
32	0x3e1057b3	0.14095955
33	0xbd998b1a	-0.07497235
34	0xbdc7ed5f	-0.09762072
35	0x3d97d169	0.07412989
36	0x3d90c8b6	0.070695326
37	0xbd83c4cf	-0.06434023
38	0x3e612dd4	0.21990138
39	0xbd002daa	-0.03129355
40	0xbdb6f86c	-0.089341015
41	0xbd52b7fd	-0.051444996
42	0x3e1481e8	0.1450268
43	0xbdf891d8	-0.121371925
44	0x3d80aade	0.0628259
45	0x3e4bbfdb	0.19897406
46	0x3d979fc2	0.07403518
47	0xbd8f024f	-0.06982862
48	0x3bd537b4	0.0065068845
49	0xbbb64b49	-0.005563174
50	0x3de74301	0.11292077
51	0x3e122ecd	0.14275666
52	0x3e7523c8	0.2393943
53	0x3d596e46	0.05308368
54	0x3e42cbb9	0.19023027
55	0xbe41acb5	-0.18913539
56	0x3c95afc2	0.018272284
57	0xbda33b15	-0.079702534
58	0x3dbfa7ef	0.09358203
59	0x3daa41a8	0.08313304
60	0x3e2b5729	0.16732468
61	0xbd5ce096	-0.05392512
62	0xbd3f130d	-0.046649028
63	0xbd305290	-0.043047488

layer2.weight f4 [32, 64]
0	0xbe2d5230	-0.16925883
1	0x3c9c6a26	0.019093584
2	0xbdb63bbc	-0.08898112
3	0xbda03a33	-0.078236006
4	0x3de8b0c2	0.11361839
5	0x3de8771b	0.113508426
6	0xbdef742d	-0.11692081
7	0x3cfe5594	0.031046666
8	0x3bda4aab	0.006661733
9	0xbe559019	-0.2085575
10	0x3e17fb64	0.14841992
11	0x3d9806ed	0.07423196
12	0x3da88fa1	0.0823052
13	0xbd1f43f2	-0.038883157
14	0x3e408967	0.18802415
15	0xbbb0059e	-0.0053717634
16	0x3b5886df	0.0033039374
17	0x3e891256	0.26771802
18	0xbe3b301b	-0.1828007
19	0xbdfe9f04	-0.124326736
20	0x3db300ec	0.0874041
21	0xbbebd46b	-0.007196953
22	0xbd794617	-0.06085786
23	0xbce86dcd	-0.02837267
24	0xbd0e77ec	-0.034782335
25	0x3dae9ec5	0.08526377
26	0x3cb47bcf	0.022031693
27	0xbd3cd67c	-0.046102986
28	0x3e6be387	0.23036014
29	0xbd78ca13	-0.060739588
30	0xbe6cb936	-0.23117527
31	0x3de163ad	0.1100534
32	0xbdc7c2e7	-0.097539715
33	0x3c0d2d0c	0.008616697
34	0xbe8419f4	-0.2580105
35	0xbd80a8be	-0.06282185
36	0x3e3e1fcd	0.18566819
37	0x3e1bac02	0.15202335
38	0x3d964a7f	0.07338428
39	0x3e453a19	0.19260444
40	0xbd8ca790	-0.068678975
41	0xbdd01afd	-0.101613976
42	0x3c0aa924	0.008463178
43	0xbd6dd11f	-0.05806076
44	0x3e5307d9	0.20608462
45	0x3e4d70cd	0.20062561
46	0xbe158ea8	-0.146052
47	0xbe492bfc	-0.19645685
48	0xbdd0297a	-0.10164161
49	0xbd2f107c	-0.04274033
50	0x3c4e85b8	0.012605123
51	0x3dd91733	0.10600128
52	0xbcf79ad2	-0.030225191
53	0xbe38355b	-0.17989103
54	0xbd3cab90	-0.046062052
55	0xbdf797e0	-0.12089515
56	0xbc710174	-0.014709819
57	0xbd79fa20	-0.061029553
58	0xbcd3b509	-0.02584316
59	0xbe462973	-0.19351749
60	0x3caf4ecf	0.021399884
61	0xbda9b97b	-0.08287331
62	0xbe1ab3c6	-0.1510764
63	0x3d566b59	0.05234847
64	0x3dd43359	0.10361356
65	0x3c929fe5	0.01789851
66	0x3e95e237	0.2927415
67	0xbd218dcd	-0.039441872
68	0x3e08aa48	0.13346207
69	0x3e351a60	0.17685843
70	0xbdfd81e6	-0.12378292
71	0x3c1fc23d	0.0097509
72	0x3e1a492a	0.15066972
73	0xbdf5afab	-0.11996397
74	0x3e7e13e4	0.24812275
75	0x3d27acb5	0.04093619
76	0x3de24916	0.11049096
77	0x3e063946	0.13107786
78	0x3e35af45	0.17742641
79	0x3d8d76c0	0.069074154
80	0xbd194dcb	-0.037427705
81	0x3e36b4a5	0.17842348
82	0xbc9a1f34	-0.018813707
83	0xbdf60ed6	-0.120145485
84	0x3e1d558d	0.15364666
85	0x3e80b3f8	0.25137305
86	0xbd03c2c4	-0.032168165
87	0xbd6e41a3	-0.058168065
88	0x3e834840	0.2564106
89	0x3dae20c2	0.08502342
90	0x3e9941dc	0.2993306
91	0xbdccdf30	-0.10003507
92	0x3e3ad1c6	0.18244085
93	0xbc72fe15	-0.014831086
94	0x3e3b7d63	0.1830955
95	0xbd51c03c	-0.05120872
96	0xbe16d21c	-0.14728588
97	0xbe45938f	-0.1929457
98	0xbe3a65df	-0.18202923
99	0xbd837f0d	-0.064207174
100	0x3d58cba6	0.05292859
101	0x3e6f7d0b	0.23387544
102	0x3d0a2fdc	0.03373705
103	0x3e8a8062	0.27051073
104	0xbdbdbf90	-0.09265053
105	0xbe4b5e09	-0.1986009
106	0x3e3185c3	0.17336182
107	0xbd89d5c0	-0.06730223
108	0x3e150575	0.14552863
109	0x3e2888b1	0.16458394
110	0x3e3ba658	0.18325174
111	0xbde01fbc	-0.10943553
112	0xbe26a270	-0.16272902
113	0x3e646e3b	0.22307675
114	0x3e3da9b2	0.18521765
115	0x3d82b7d5	0.063827194
116	0x3c4b64b4	0.012414146
117	0xbde0a1f1	-0.10968388
118	0x3daeff19	0.0854475
119	0xbd8761b0	-0.06610429
120	0xbe634a6b	-0.22196357
121	0xbe41c6e6	-0.1892353
122	0xbbc37bc2	-0.005965681
123	0x3da44829	0.08021576
124	0x3c9a3c22	0.018827502
125	0xbe86f318	-0.2635734
126	0xbe2b6e66	-0.16741332
127	0x3d67b756	0.056571327
128	0xbe66e478	-0.22548091
129	0xbc4533be	-0.012036262
130	0xbea7adcb	-0.3274978
131	0x3e23f4b7	0.1601132
132	0xbdf24252	-0.11829056
133	0xbde553e0	-0.111976385
134	0x3ecf44ba	0.40482122
135	0x3dd4e833	0.10395851
136	0xbd56350d	-0.052296687
137	0x3e4c5a09	0.1995622
138	0xbe430d97	-0.19048153
139	0x3d89d952	0.06730904
140	0x3dda4f8e	0.10659705
141	0x3d1c3153	0.038132977
142	0x3d90f077	0.07077115
143	0xbded2785	-0.115798034
144	0x3c2b0278	0.0104376
145	0xbe48e611	-0.19619013
146	0x3c8d0b95	0.017217437
147	0x3c0a7cde	0.008452622
148	0xbe039358	-0.12849176
149	0xbe61f9fe	-0.2206802
150	0x3e369d87	0.1783353
151	0x3e30233e	0.17200944
152	0xbdfa3391	-0.12216867
153	0x3e253660	0.16134024
154	0xbe8da554	-0.27665198
155	0x3e5a3644	0.21309763
156	0xbe22449e	-0.15846488
157	0x3d9785a0	0.07398534
158	0x3d6dfb68	0.058101088
159	0x3ca10df9	0.019659983
160	0x3d943012	0.07235731
161	0x3e495342	0.19660667
162	0x3e1eca62	0.1550689
163	0x3be9d8d8	0.0071364455
164	0xbdd4c4ab	-0.10389074
165	0xbe45188f	-0.1924765
166	0x3e4af250	0.19818997
167	0xbe54909d	-0.2075829
168	0x3e4df6d4	0.20113689
169	0x3e6329a9	0.22183861
170	0x3cd8c10e	0.026459243
171	0x3e8b0ea1	0.27159598
172	0xbe91d701	-0.28484347
173	0xbe4d27eb	-0.20034759
174	0xbd3de4d7	-0.046360817
175	0x3e36535b	0.17805235
176	0x3dc5646a	0.09638293
177	0xbd0e9684	-0.03481151
178	0xbe6d7820	-0.23190355
179	0xbdf0a93f	-0.11751031
180	0xbcaf2578	-0.021380171
181	0x3e507504	0.20357138
182	0x3ccb1e3d	0.024794692
183	0x3d8168dc	0.063188285
184	0x3e8ed7c5	0.27898994
185	0x3e6b193c	0.22958845
186	0xbd88dd96	-0.06682889
187	0x3cee14c2	0.029062632
188	0x3e53a6d2	0.20669106
189	0x3eac7ed4	0.33690512
190	0x3e89011f	0.26758668
191	0xbe8c6838	-0.27423263
192	0xbd376ac3	-0.04477955
193	0xbd8a9e77	-0.06768506
194	0x3cf56d97	0.029959483
195	0xbe5dc44e	-0.21656916
196	0x3e639ab2	0.2222698
197	0x3e534629	0.20632233
198	0xbe83ae74	-0.25719035
199	0x3d4a45ff	0.04938316
200	0x3e1d0569	0.15334095
201	0xbe8cf387	-0.27529547
202	0x3e150bb9	0.14555253
203	0xbbac5c64	-0.0052600373
204	0x3e67ef11	0.2264979
205	0xbe1101f1	-0.14160897
206	0x3e5d170e	0.21590826
207	0x3d815bfe	0.06316374
208	0x3c653075	0.013988604
209	0x3e9112a0	0.28334522
210	0xbe05bc7a	-0.1306018
211	0xbe47aa58	-0.19498575
212	0x3e0dc80f	0.13845848
213	0xbc881a8d	-0.016614223
214	0x3bf6d46d	0.0075326473
215	0x3c6cf45d	0.014462558
216	0xbddca09d	-0.10772822
217	0x3db8843f	0.09009599
218	0x3e404d0b	0.1877939
219	0xbdff676c	-0.12470898
220	0x3e0cd515	0.1375316
221	0xbe0d2a7d	-0.13785739
222	0xbe8239b6	-0.25434655
223	0xbe095810	-0.134125
224	0xbd7074c2	-0.0587051
225	0xbe0e2452	-0.13881043
226	0xbe10723d	-0.14106078
227	0x3c60c079	0.013717764
228	0x3e1bc6c4	0.15212542
229	0x3d049512	0.032368727
230	0x3dfbfddf	0.123042814
231	0x3da26307	0.07929044
232	0xbe0fe63d	-0.14052673
233	0xbd8b691f	-0.0680716
234	0xbccaa50b	-0.024736902
235	0xbe78c2dc	-0.24293083
236	0x3c98a73e	0.018634435
237	0x3debb597	0.11509245
238	0xbe8190cd	-0.25305787
239	0x384138c8	4.6067667e-05
240	0xbe1293a2	-0.1431413
241	0xbe44b89c	-0.19211048
242	0xbdf1a721	-0.117994554
243	0x3df8bc6b	0.12145313
244	0xbd13ceff	-0.03608608
245	0xbe500bca	-0.20316997
246	0x3d0f77ff	0.035026547
247	0x3d6e9690	0.058249056
248	0xbd8c18dc	-0.06840679
249	0xbe5bb01a	-0.21453896
250	0xbe288c64	-0.16459805
251	0xbe0edc16	-0.13951144
252	0xbd28d858	-0.041221946
253	0xbe198f31	-0.1499603
254	0xbe30aa30	-0.17252421
255	0x3e46cbdc	0.19413704

layer2.bias f4 [32]
0	0xbcc34224	-0.02383525
1	0x3e16d8f1	0.14731194
2	0x3d72dd15	0.05929287
3	0x3d15dcb8	0.036587447
4	0x3d85f19b	0.06540223
5	0x3c84c3bb	0.016206613
6	0x3d642ad0	0.05570489
7	0xbcc955e3	-0.024577087
8	0x3c8dfff6	0.017333966
9	0x3d1c8842	0.038215883
10	0x3ceb02d1	0.028687866
11	0x3db6b072	0.08920373
12	0x3e090498	0.13380659
13	0x3df63169	0.12021143
14	0xbd22a3c9	-0.03970698
15	0x3cfdafd4	0.03096763
16	0x3d0c42e6	0.034243487
17	0xbcb6e1b8	-0.022324428
18	0xbc8b9fc8	-0.017043963
19	0xbc57919c	-0.013157275
20	0x3e112075	0.14172538
21	0xbc862026	-0.016372751
22	0x3bee519e	0.007272913
23	0xbdac6b14	-0.08418861
24	0x3ac2190f	0.0014808493
25	0x3da0e2e1	0.07855774
26	0x3dfc9338	0.12332767
27	0x3ded249a	0.11579247
28	0x3d3fe8e1	0.04685295
29	0x3c89f476	0.0168402
30	0xbc7077ba	-0.014676983
31	0x3d3fa021	0.04678357

output.weight f4 [3, 32]
0	0x3c86ca47	0.016453875
1	0x3cfb097f	0.030644177
2	0xbe0ba59e	-0.13637397
3	0xbe3bec6b	-0.18351905
4	0xbea43f15	-0.32079378
5	0x3ea22026	0.31665152
6	0xbd9540ec	-0.072877735
7	0xbe198acc	-0.14994353
8	0xbdf0dbb0	-0.11760652
9	0xbe995cf2	-0.29953724
10	0x3d8e2979	0.06941504
11	0x3e4bf99b	0.19919436
12	0x3e437de1	0.19090988
13	0xbe9e5c80	-0.30929947
14	0xbe88bfc0	-0.26708794
15	0xbe7e428f	-0.24830078
16	0x3e8744fc	0.26419818
17	0x3e95c979	0.29255274
18	0xbe79e3d2	-0.24403313
19	0xbec637fc	-0.38714588
20	0x3dd76a89	0.10518367
21	0xbea1f238	-0.3163011
22	0xbed71922	-0.42011362
23	0xbd178bc2	-0.036998518
24	0x3daf2525	0.08552007
25	0x3e79bb47	0.24387847
26	0x3e941633	0.28923187
27	0x3e568772	0.20950106
28	0xbd4f8dbd	-0.05067228
29	0xbe8d9973	-0.27656135
30	0xbe2426d6	-0.1603044
31	0x3e7f16fd	0.24911113
32	0x3ea2399d	0.3168458
33	0xbc9de32b	-0.019273361
34	0xbe1fb2a9	-0.15595497
35	0x3e80b4b4	0.25137866
36	0x3d8030d7	0.062593155
37	0xbeac85e2	-0.33695894
38	0xbe0b3ac7	-0.1359664
39	0xbe7d1406	-0.2471467
40	0xbdd6f48b	-0.104958616
41	0xbe4e63a2	-0.20155194
42	0x3d830f8c	0.0639945
43	0xbdb06c0e	-0.0861436
44	0xbeb144ca	-0.34622794
45	0xbc54669f	-0.01296392
46	0x3e951d52	0.29123932
47	0x3eab7262	0.33485705
48	0x3c0a0af8	0.008425467
49	0xbe8265a5	-0.25468174
50	0x3e66cbcc	0.2253868
51	0x3bc8cafa	0.0061277123
52	0x3e16f25b	0.14740889
53	0x3e1c6272	0.15271929
54	0x3d9032dc	0.07040951
55	0x3e1e6818	0.15469396
56	0x3df9a903	0.121904396
57	0xbe3339d2	-0.17502525
58	0xbe950572	-0.29105717
59	0xbe8aec23	-0.27133283
60	0x3dce7ef3	0.100828074
61	0xbea21fb2	-0.31664807
62	0xbdcbb715	-0.099470295
63	0xbea27248	-0.31727815
64	0xbe819892	-0.25311714
65	0xbed548e3	-0.4165717
66	0x3ea7b84e	0.327578
67	0xbea29b14	-0.3175894
68	0xbea1b62f	-0.31584308
69	0xbe0b6001	-0.13610841
70	0xbdfdd686	-0.12394433
71	0x3e8c83ac	0.27444208
72	0xbc41b938	-0.011823945
73	0x3e8f80f8	0.28028083
74	0xbea7aed3	-0.32750568
75	0xbeaa75e4	-0.33293068
76	0x3e2faa6e	0.17154858
77	0x3e2cae58	0.16863382
78	0xbea70b79	-0.3262594
79	0xbdbde8b7	-0.092729025
80	0xbe9f8469	-0.31155708
81	0xbe645f21	-0.22301914
82	0xbe0a1eb8	-0.13488281
83	0x3e2a8bf3	0.16654949
84	0xbe9a54b3	-0.30142745
85	0x3e48ffd6	0.19628844
86	0x3d92c24c	0.071659654
87	0xbe104812	-0.14089993
88	0xbe927833	-0.2860733
89	0xbdc7a8b3	-0.09748974
90	0xbe8311a4	-0.25599396
91	0x3e7a98c6	0.24472341
92	0xbeb643ea	-0.3559869
93	0x3e1ac480	0.15114021
94	0x3e8079a0	0.25092793
95	0xbe8cb545	-0.27482048

output.bias f4 [3]
0	0xbe2b75f2	-0.16744211
1	0xbe45a30f	-0.19300483
2	0x3cfbbccd	0.030729676
