models/pushup_pytorch_model.pt (torch, 18186 bytes, 6 tensors)

layer1.weight f4 [64, 25]
000000 87 b4 95 bd bd bf ef bd 13 3d 50 bd 67 77 dd bc
       -0.073098235 -0.11706493 -0.050839495 -0.027034475
000010 ad 79 9b bd 60 85 5a 3d 1d be ed bd 4d de a0 bc
       -0.07591567 0.053349853 -0.11608527 -0.019637251
000020 1a c0 40 3c ad ef b9 3d 9a 10 41 3e 17 de 05 3e
       0.011764551 0.09078918 0.18853989 0.13073002
000030 97 56 16 3e 68 6a 25 be cd 7a fd bb 90 c2 1a be
       0.14681469 -0.16153872 -0.0077355863 -0.15113282
000040 9d 59 89 bd c0 95 8a bc 0d 99 65 3e 55 17 a9 3b
       -0.067065455 -0.01691711 0.22421665 0.005160252
000050 0b c9 86 3e 5a f5 2c 3e 6f 3b 16 3e 15 ed a4 3e
       0.2632526 0.16890469 0.1467111 0.3221213
000060 26 b1 81 3e 67 ca b7 3a 9a d8 a1 3d 85 55 0e be
       0.25330466 0.0014022113 0.079026416 -0.1389981
000070 aa 4b 32 be 00 1c 84 ba 0b 83 41 be 25 db 21 3e
       -0.17411676 -0.0010079145 -0.18897645 0.15806253
000080 33 23 20 bb 67 bc 62 bb 4d 21 82 bc 9a f9 9a 39
       -0.0024435043 -0.003459716 -0.01588502 0.00029559137
000090 70 a8 e7 3d 40 8c bd 3c 4a 60 d7 bd 27 3b 34 3d
       0.11311424 0.023138165 -0.105164126 0.044001725
0000a0 e0 47 d0 bd b3 91 68 3c 9a dd a8 3c 87 65 0b be
       -0.10169959 0.014194894 0.02061348 -0.13612948
0000b0 98 98 b6 bc 88 f8 87 3e 77 3e 5a 3e 3d ba 45 3e
       -0.02228956 0.26556802 0.21312891 0.19309326
0000c0 08 83 88 3e 7d bc 62 3e 10 ef 87 3d 87 8b 5a bd
       0.2666247 0.22142215 0.066373944 -0.05335572
0000d0 27 99 1a bd e5 ca 3c be 9a 27 fb bd 13 a1 25 bd
       -0.037743714 -0.18436773 -0.12263413 -0.040436815
0000e0 b7 d7 d9 3d 9a 9b e7 bc 67 2c 62 3d 73 46 dc 3d
       0.106368475 -0.028272439 0.055218127 0.107556246
0000f0 00 be 36 bc cd 25 be bd 78 1b 03 be 4d eb 5f bd
       -0.011153698 -0.09284554 -0.12803447 -0.05466776
000100 60 8b 4e 3d 33 4a b6 bc d0 3f 13 be 2d 03 e6 3d
       0.050425887 -0.022252178 -0.14379811 0.112310745
000110 b8 b2 0c 3c f6 65 53 be f4 7b 89 3b eb a4 40 be
       0.008587532 -0.20644364 0.0041956846 -0.18812911
000120 79 ae 5a bd c4 4d 08 be 8d 15 4f 3d f2 a1 46 3e
       -0.053389046 -0.13310915 0.05055766 0.19397715
000130 93 6b 37 bd 67 a5 01 be f7 25 b4 bd cd 5a 2c 3e
       -0.044780325 -0.12660752 -0.08796304 0.16831513
000140 30 32 90 3d 17 28 03 3e 37 1e 0a be 00 66 51 bd
       0.070408225 0.12808262 -0.13488089 -0.051122665
000150 27 68 66 3d 43 cf fe 3d c3 72 3c be 73 84 2f 3e
       0.05625167 0.12441876 -0.18403153 0.17140369
000160 c3 54 41 be 20 c0 27 3d 57 6c 3b 3e 4d 4a 7c bc
       -0.1887999 0.04095471 0.18303047 -0.015398574
000170 73 24 bb 3d 2d a2 ad bb a0 4c 4b bd 66 d6 f1 3d
       0.091378115 -0.005298874 -0.049633622 0.118084714
000180 9b 00 b7 3e 02 25 48 be 61 5a db 3d 66 33 77 be
       0.3574265 -0.19545367 0.10710598 -0.241407
000190 78 d2 11 be 03 f9 fc bd 9a 37 13 3d 10 ac 8e 3d
       -0.14240444 -0.12352183 0.035941698 0.06966412
0001a0 43 b2 88 bd 1a c3 71 bc 73 0a 7e bd a0 d3 fd bd
       -0.06674626 -0.0147559885 -0.062021684 -0.1239388
0001b0 67 74 ed 3d 90 1c 1b 3e da f3 23 3e 40 09 a7 bc
       0.115944676 0.15147614 0.1601099 -0.020390153
0001c0 cd 2d e7 3c 43 f0 2f 3e 0d a2 c2 bc b3 ad 23 3e
       0.028220082 0.17181496 -0.023758912 0.1598423
0001d0 4a 94 bb 3d 03 62 a7 bd 8a b5 d9 bd 95 15 88 3d
       0.09159143 -0.08172991 -0.10630329 0.066447414
0001e0 9f e4 89 3e c8 60 8f 3e 7c d5 de bd 8b 56 85 3e
       0.26932237 0.28003526 -0.10880563 0.2604259
0001f0 04 14 8e 3d f0 75 c9 bd 13 6a a5 bd d3 3d 0a be
       0.069374114 -0.09836948 -0.08076873 -0.13500147
000200 ea 8b 28 be bf 47 3e 3e 8d f2 06 3d 53 79 92 3d
       -0.16459623 0.18582056 0.03294616 0.07152047
000210 a3 38 37 be ed 1f 1f 3e af b1 2b 3e c0 be bb bd
       -0.17892699 0.15539522 0.16767 -0.09167242
000220 67 f1 7d 3c 77 6e cb bd 00 6d d1 3c 6d 14 ce bd
       0.015499449 -0.09933179 0.02556467 -0.1006249
000230 fd c7 14 be 6a 3d 92 3d 5a 5c 84 bd e4 f4 30 3e
       -0.14529414 0.0714062 -0.06462927 0.17280918
000240 74 bf 82 3e 57 8a c9 bb fa 0d b4 3c b5 95 77 3e
       0.25536692 -0.0061505246 0.02197932 0.24178202
000250 2d 57 8d 3e a7 bc c2 3d 6b 38 22 be cb 3c 18 be
       0.27605572 0.09508639 -0.15841834 -0.1486694
000260 47 c0 a1 3d 60 ba 33 3e 33 e3 24 3b aa 64 00 3e
       0.07898002 0.17551565 0.0025159835 0.125384
000270 43 4a 47 3e 92 aa 05 3e 18 cf 10 3e cd 9b 70 bc
       0.19461922 0.13053349 0.141415 -0.014685583
000280 4d c4 04 3d 1a d7 f1 bd 0b fc 17 be 00 76 cd 3d
       0.03241377 -0.118086055 -0.1484224 0.10032272
000290 50 b8 de 3d 2f d6 3d 3e a2 83 16 3e 63 5a 05 3e
       0.108749986 0.18538736 0.14698651 0.13022761
0002a0 bc 11 13 3e 17 82 ef 3d 8c 47 1c bc 4d 41 f6 3d
       0.14362234 0.116947345 -0.0095385425 0.12024174
0002b0 25 29 8d 3d 0e 34 eb 3e ec 60 09 3e f7 60 dd 3d
       0.06892613 0.45938152 0.13415879 0.1080951
0002c0 20 c3 23 3e e0 56 2f 3d d0 e2 a0 3d f0 ae f1 3d
       0.15992403 0.04280746 0.07855761 0.11800945
0002d0 8b 93 11 be cf 21 03 3e 53 26 2b bd 33 20 9c bd
       -0.1421644 0.12805866 -0.041784596 -0.07623329
0002e0 aa b5 1a 3e 1a f9 8b 3c 2d ca 5b 3d 33 23 81 39
       0.15108362 0.017086554 0.053659607 0.00024631023
0002f0 0d 56 14 be a3 eb f0 3d 97 4e 96 bd 07 f4 f0 bd
       -0.14485951 0.11763694 -0.073392086 -0.117652945
000300 30 4d f9 bd 72 f6 1f 3e 9c ef 28 3d 9b cb 87 be
       -0.121729255 0.15621355 0.041244134 -0.26522526
000310 2f 53 b1 be 8d 2d 9d bd 91 19 59 bd 97 22 a6 bd
       -0.34633777 -0.07674704 -0.053002898 -0.08112066
000320 fa 90 28 bd 40 b3 38 be b3 81 cf bd 7a 5f 17 3e
       -0.041153885 -0.18037128 -0.1013216 0.14782515
000330 ad 25 0d be 67 df 52 3c 37 d5 b5 bd a3 34 d3 bd
       -0.13783903 0.012870646 -0.08878558 -0.10312774
000340 33 9f 38 3b 5d 7f 96 bd 0d 29 ca bd cd 21 1f 3d
       0.0028171062 -0.07348511 -0.09871111 0.038850594
000350 27 78 11 bd 20 0e 96 bd bd 36 05 be f3 c7 f3 3c
       -0.035514977 -0.07326913 -0.13009162 0.02975843
000360 82 97 3e 3e ed 51 46 bd f7 07 b6 bc 73 3a 73 bd
       0.18612483 -0.048417974 -0.022220595 -0.059381913
000370 ed 93 a3 be 79 75 98 bd 61 7e ef bc e7 ff 53 be
       -0.31948796 -0.07444281 -0.029235067 -0.20703088
000380 6c 33 72 3e ff b7 04 3e a7 9f 0f bd e3 c2 8f bd
       0.23652428 0.12960814 -0.035064366 -0.070195936
000390 47 13 30 3d 28 d4 14 3e f8 9a 00 3e aa d5 f9 bd
       0.042987134 0.14534056 0.12559116 -0.12198956
0003a0 1a d3 e6 bd 03 c3 e2 bd 87 42 43 3d f3 dc ef bc
       -0.11270733 -0.11072352 0.047670867 -0.029280161
0003b0 97 08 1a be f8 be 0b be 27 5f d4 3d 6a 14 b9 3d
       -0.1504234 -0.13647068 0.10369711 0.09037097
0003c0 cd 9b fa bc 6d 03 f5 3d 97 ee af bd be db 08 3d
       -0.03059187 0.11963544 -0.08590429 0.033412687
0003d0 6a 55 b7 bd b2 df ba 3d ef 5d 25 bd e5 cd 91 3c
       -0.08951838 0.09124698 -0.040372785 0.017798373
0003e0 48 26 e6 be 36 b5 23 be 8a 45 f4 3d 50 32 fb 3d
       -0.4495108 -0.15987095 0.11927326 0.12265456
0003f0 e7 6d 9d bd b7 8e c4 3d ea dc 19 3e bf fd 12 3e
       -0.07686978 0.09597533 0.15025678 0.14354609

layer1.bias f4 [64]
000000 bb e4 14 3e 42 e8 9f 3e 12 13 fd 3d e0 88 66 bb
       0.14540379 0.31231886 0.12357153 -0.0035176799
000010 a6 e5 aa 3e 66 ef b6 3d bb 9b b9 ba 69 1f 08 be
       0.33378333 0.089323804 -0.0014160791 -0.13293232
000020 cb e7 4f 3e 56 8e 6e 3d 3f 4d da bc b8 7b da 3d
       0.20303266 0.05824121 -0.026648162 0.10668129
000030 52 d3 3e be 7d e7 26 3d 6b 61 90 3d 79 75 25 3e
       -0.186353 0.04074811 0.07049831 0.16158094
000040 c3 18 5e 3c 89 74 eb 3d 85 c8 05 be 9f 91 45 3e
       0.013555708 0.11496837 -0.13064773 0.19293831
000050 8e d4 5e 3e 00 a2 aa 3d 33 fe 9c bd 8d 67 2f 3e
       0.2176077 0.0833168 -0.07665672 0.17129345
000060 17 ea 9a 3d 55 d9 03 3e 58 a5 8f 3e 46 8c b4 bc
       0.0756418 0.12875874 0.28055835 -0.022039544
000070 1c 7d 8d 3e 26 c1 5a 3e 3f 27 5b be 21 ac 2d 3d
       0.27634513 0.21362743 -0.2140169 0.042400483
000080 8b 87 88 bd be 8e 72 3d bc 29 8e 3c fe f2 16 be
       -0.06666478 0.05921816 0.017353885 -0.14741132
000090 98 39 49 3e 92 7b 3b 3d d0 22 0c be c8 12 9b 3d
       0.19650877 0.045772143 -0.13685155 0.075719416
0000a0 8d 24 f5 3d ca 0f 27 bc 5b c0 0f be 29 8f 0e 3c
       0.11969862 -0.0101966355 -0.14038222 0.008701124
0000b0 0f de 6a 3e 4f e7 85 3e 3c 94 92 bd e9 61 6e bd
       0.22936271 0.26153037 -0.0715718 -0.058198843
0000c0 7b b3 a0 3d ed db 16 3e de 9f af 3a 5d b0 19 be
       0.07846733 0.14732333 0.0013399085 -0.15008684
0000d0 8b ab e8 bd ba 3a c1 bd 8c f2 64 3e fd 1a 5a 3d
       -0.11360844 -0.09435029 0.2235815 0.053248394
0000e0 d9 b4 3f 3e 21 bd 08 3d a9 72 f3 3c ec 74 70 3b
       0.18721332 0.033383492 0.02971776 0.0036690785
0000f0 63 9a 4b be 44 2d 8f bd a5 98 2a 3d 57 2e cc bd
       -0.19883113 -0.069910556 0.04164948 -0.09969776

layer2.weight f4 [32, 64]
000000 5e 88 1e be 09 c4 a1 be 22 b9 5b 3e c2 8a 70 be
       -0.15481707 -0.31594875 0.21457341 -0.23490432
000010 da 42 8b be 3a a5 94 bd 5e 3e 87 be e6 51 64 3d
       -0.2719944 -0.07258077 -0.2641477 0.055742167
000020 2f 03 2e 3e a2 d1 07 3e 64 24 3f be 9f dd b1 3d
       0.16993402 0.13263562 -0.18666226 0.08684849
000030 80 2b ef 3a 77 45 23 bd 44 ce 77 3e df df 22 3e
       0.0018247217 -0.03986117 0.24199778 0.15905713
000040 e2 84 9f 3d 8e 1d 26 3e 78 b0 38 be 33 86 e9 3d
       0.07789017 0.16222212 -0.18036067 0.114025496
000050 51 7e ea 3d a5 f8 5a 3e 18 26 64 be 6e d0 41 be
       0.11449874 0.21383913 -0.22280157 -0.18927166
000060 eb bc 9c 3c 4c ad 2f be d2 c9 fb bc 5a e5 88 3e
       0.019133052 -0.17155951 -0.030735884 0.2673748
000070 61 ca 0c 3d ae 13 b7 3d c5 4c 60 be 9d 7e 05 3c
       0.03437269 0.089393005 -0.21904285 0.008147863
000080 2a 8f 33 bd 90 bb e4 bd f2 8e 62 3d c8 16 2b bd
       -0.043837704 -0.11168587 0.055312105 -0.041769773
000090 dc b1 07 3e 5c c7 c1 bc d2 df 1a be 89 8d 1a be
       0.13251442 -0.023654632 -0.15124443 -0.15093054
0000a0 99 56 14 3d d3 ce 90 be 60 95 a0 be a0 21 8e 3e
       0.0362154 -0.28282794 -0.31363964 0.2776003
0000b0 3d 9f 86 3e 83 32 60 3e a0 d8 1b be e7 74 20 bd
       0.26293364 0.21894269 -0.15219355 -0.039173987
0000c0 86 f3 5f bc 93 ac b3 bd 2b 10 3a bd 99 41 81 bd
       -0.0136689 -0.0877315 -0.045425575 -0.0631134
0000d0 e9 d5 71 3e 81 9a 93 be d6 61 9c 3d db 9e 24 3d
       0.23616756 -0.28828815 0.07635848 0.04019056
0000e0 b3 83 12 bd 7e 08 46 3d 02 34 af be ba 34 7f be
       -0.03577013 0.048347943 -0.34219366 -0.24922457
0000f0 52 70 ef 3d e5 ec 71 3e be ab a3 be bd 2e 96 bd
       0.11691345 0.23625524 -0.31966966 -0.07333133
000100 9d 97 32 3e 4b 8a 68 3e d4 63 1c bd db 8a c1 3d
       0.17440648 0.22709005 -0.03818114 0.09450313
000110 a3 89 78 3e ad 2d 8c bd d0 eb 28 3e 9b 2b 79 be
       0.24271254 -0.068446495 0.16496205 -0.2433304
000120 c0 9e 04 be 53 50 2e 3e 72 56 5e 3e 87 8e 96 bd
       -0.12951183 0.17022829 0.21712664 -0.07351404
000130 bc 8b ed bd fc 4a 05 3e 94 5e 0a be b5 c7 bf 3d
       -0.11598918 0.13016886 -0.13512641 0.09364263
000140 55 e8 0c be e3 fe a8 bd 3f 6c a0 3d ef d4 04 be
       -0.13760503 -0.08251741 0.07833146 -0.12971853
000150 4f b8 40 be 4c dd 68 3c 3e 72 94 3e bd 2b e5 3d
       -0.18820308 0.014212918 0.2899341 0.11189983
000160 f3 94 30 3d b4 2a 6a 3e ab 15 d2 3d 1d 57 1b be
       0.0431108 0.22867852 0.10258039 -0.1516995
000170 18 74 03 be f9 7b e4 3d 69 4d 04 3d cf df 43 3e
       -0.12837255 0.111564584 0.032300387 0.19128345
000180 b9 82 4a 3d fa 50 96 3d 32 62 20 be e2 96 b5 ba
       0.049441073 0.07339664 -0.15662459 -0.0013854171
000190 d5 40 b0 3d a5 22 99 3d 61 e3 97 3d 76 e5 b7 3d
       0.08606116 0.07477311 0.07416416 0.08979313
0001a0 4b 92 89 bc 6e 02 24 3e 64 99 ef 3d 1a f0 ab bd
       -0.01679339 0.16016552 0.11699179 -0.08395405
0001b0 7d 8b 55 3c 5b 7c f6 3b f1 2c 5b 3e 93 eb 8c 3d
       0.013033745 0.0075221485 0.21403863 0.0688087
0001c0 b1 85 70 3e 0b 0d b9 3d 7a 7c 49 3b 18 9c 99 3d
       0.23488499 0.09035691 0.003074436 0.07500476
0001d0 a4 5c 19 be c4 97 1c 3e 5e 03 e6 bd 4f 95 03 3e
       -0.14976746 0.15292269 -0.11231111 0.12849925
0001e0 9c bc da 3d 4f 19 58 bd b1 59 4a 3e df fe f8 3d
       0.10680506 -0.05275851 0.19760777 0.12157988
0001f0 40 a8 5b 3b 9f 86 28 be b3 bf d4 3d 36 6a 58 3e
       0.0033517033 -0.16457604 0.10388126 0.21134266
000200 89 ba b3 3d 94 14 24 3e 1f 28 06 be 5f d5 d8 3a
       0.08775813 0.16023475 -0.13101242 0.0016543082
000210 0e 1e ab 3c 97 fa b9 3d 85 e0 03 3e ad e7 09 be
       0.020888355 0.09080999 0.12878616 -0.13467284
000220 85 74 97 3d 0d 8a e6 bd 2c 6e d3 bd 01 f2 2b bd
       0.07395271 -0.112568 -0.10323748 -0.04197884
000230 00 96 41 bd cb f6 8b 3d 8c 56 05 bd d6 ff 80 3d
       -0.04726219 0.068341814 -0.03255324 0.06298797
000240 11 ed 25 be 78 ce 1c be 49 c6 53 3e b7 50 9d bb
       -0.16203715 -0.15313137 0.20681109 -0.0048008817
000250 e1 cd 11 3e cc 75 0c 3c e5 07 80 bd 91 99 33 be
       0.14238693 0.008573007 -0.06251506 -0.1753905
000260 4f 15 f7 bd f1 62 58 3e 9f e4 66 bd 5e 1a 63 be
       -0.12064611 0.21131493 -0.056370374 -0.22178027
000270 d1 8d 23 3e 5e 97 ee bd 4a ec 42 3d bf 08 0a 3d
       0.15972067 -0.11649965 0.047588624 0.033699747
000280 cb b2 34 3e b8 3c 14 be 54 6c fc bd e0 55 1c be
       0.17646329 -0.14476287 -0.123253495 -0.15267134
000290 59 eb 75 bd 1b 17 02 be 41 7b 32 be 89 fb da 3b
       -0.0600389 -0.12704127 -0.1742983 0.0066828174
0002a0 09 48 22 bd 3e 72 80 be 10 14 1c 3e 52 7d ca bd
       -0.03961948 -0.2508716 0.15242028 -0.09887184
0002b0 26 1a 2d bd 27 d3 32 be 32 14 c1 bd 3c 78 3c bd
       -0.042261265 -0.1746336 -0.0942768 -0.046013102
0002c0 9b 6d ff bd aa ea 53 3e 59 34 c0 3d 60 22 4e 3e
       -0.124720775 0.20694986 0.093849845 0.201303
0002d0 83 f3 46 be 57 06 fe 3d eb 50 6f 3d 23 fd de bd
       -0.1942883 0.12403553 0.05842678 -0.10888126
0002e0 46 55 fd bd 54 d8 04 3e a1 3a 81 bd 49 88 bf 3d
       -0.1236978 0.12973148 -0.06310011 0.09352166
0002f0 fc 2c 74 bd 11 a0 74 be c0 08 3a 3d 41 0f d1 bd
       -0.059613213 -0.23889185 0.0454185 -0.102079876
000300 48 4f 2a bd 19 c9 c7 3d 42 2a ac 3d fc 8e 84 3e
       -0.041579515 0.09755153 0.084064975 0.25890338
000310 c7 fa cd 3d fc 05 8c be 2e 9c c4 bd 65 36 f2 bc
       0.100575976 -0.27348316 -0.096001014 -0.029566953
000320 f8 ee 3d be ba 4d 1f 3e cb 7c 26 3e 5b 67 31 be
       -0.1854819 0.15556994 0.16258542 -0.17324583
000330 7e 87 e3 3d 53 c8 88 be d5 0d 90 be 97 0b fd 3c
       0.111098275 -0.26715335 -0.28135553 0.030889316
000340 e7 21 f2 bd 2e 09 24 3d dc ed 5a be ac e8 54 be
       -0.118228726 0.040047817 -0.21379799 -0.20791882
000350 94 03 cb bd 1d 15 f1 bc b3 91 80 3e 1b 38 04 3e
       -0.09912792 -0.029429013 0.2511116 0.12912028
000360 c7 54 17 3d 46 aa 2d 3d e5 7f ba be 21 63 82 be
       0.036946084 0.042398714 -0.364257 -0.25466254
000370 ac 55 19 be 7b 42 a9 3b 2e 2c 4a 3e 2b cc a1 bd
       -0.14974087 0.005165396 0.19743416 -0.0790027
000380 bc b3 4a be 9e 1f 64 3d af 37 92 3d 29 4d 89 3e
       -0.19795126 0.055694215 0.07139527 0.2681668
000390 38 92 4e 3e b4 5e 4f 3e b9 90 ab 3e 53 20 43 3e
       0.20172966 0.2025097 0.33508852 0.190553
0003a0 be 97 64 3d 07 bb 67 3e 2d 0f 5b be f0 71 1c be
       0.055808775 0.22629939 -0.21392508 -0.15277839
0003b0 23 1b a4 3b eb 05 f8 3d 58 02 a0 3d e2 44 10 3e
       0.0050081178 0.12110504 0.07812947 0.14088777
0003c0 d6 5c 72 3e 4b e1 37 bc 06 b3 85 be 02 8d 73 bd
       0.23668227 -0.011223148 -0.26113147 -0.059460647
0003d0 4d ab c7 bd 21 fc c9 bd 6f 06 30 bd fa ff c5 3d
       -0.0974947 -0.09862543 -0.042974886 0.09667964
0003e0 d1 36 9b 3e a7 70 6b be fd 29 cb 3d 78 84 b7 3b
       0.3031526 -0.22992192 0.09920118 0.0056005083
0003f0 f6 7a b7 3d 4f c4 e2 bd 06 55 5a bd 20 1f 89 3e
       0.08959 -0.11072599 -0.05330374 0.2678156

layer2.bias f4 [32]
000000 ed 01 9e 3d 4e ae 2b 3e 8e 7f 6c 3d c8 d7 81 bc
       0.07715211 0.1676571 0.057738833 -0.015849963
000010 27 ec 19 be 36 8d 83 3d 5f b7 42 3e 8c dd b0 bc
       -0.15031491 0.06423418 0.19015263 -0.021590017
000020 1b 3f 25 3e c1 6b b4 bd d8 da 33 3e 23 80 f8 3c
       0.16137354 -0.08809615 0.17563951 0.030334538
000030 17 bd 49 bd e2 33 22 3d 4d 6b 0b 3d 5b ab a0 3c
       -0.049252596 0.03960026 0.034037877 0.019612959
000040 35 4a bc bc 0c 3b d8 3d 96 ba 56 bd 13 42 1a 3e
       -0.022984603 0.10558137 -0.052424036 0.15064268
000050 b9 16 17 3e a3 df a6 bd c5 7b 7b 3d fd cc 68 3d
       0.14754762 -0.08148124 0.061397333 0.056836117
000060 17 57 0e 3e ed 90 62 3d d0 40 f5 3d 4d c6 a4 3d
       0.1390041 0.055313993 0.11975253 0.08045635
000070 a8 ed 64 bc 35 92 06 3e 8d 61 0e bc dc 44 00 3e
       -0.013972677 0.13141711 -0.00869025 0.12526268

output.weight f4 [3, 32]
000000 a3 2c 47 be f6 72 27 bd c4 be 86 3e 83 7c 74 be
       -0.19450621 -0.04088112 0.26317418 -0.23875622
000010 58 9d e1 bd 2a 5b 96 3e 2c 7d cc bd 2d 03 9a 3e
       -0.11016339 0.29366428 -0.09984812 0.30080548
000020 8a a9 6d be 1f 7f 12 be 20 3f 75 be 1a 89 71 be
       -0.23209205 -0.14306305 -0.23949862 -0.23587456
000030 fa 3e 83 be fa 4d e7 3d fe e7 2d 3e ee d7 99 3e
       -0.25633985 0.1129417 0.16983029 0.30047554
000040 72 66 09 be c9 76 70 3e 8c 9f a8 3e 38 cd 09 be
       -0.13417986 0.23482813 0.32934225 -0.13457191
000050 f2 06 ba be 85 50 92 3e 80 e5 85 3d 26 88 ad 3d
       -0.36333424 0.28577057 0.06537914 0.08473234
000060 56 68 8c be 7e 6b 97 be b6 0d 80 be 2b 70 40 3e
       -0.27423352 -0.29574198 -0.2501046 0.18792789
000070 db 98 0c be e9 e9 2e 3e ec 3f 89 3e f5 5a 2d be
       -0.13730185 0.17081417 0.2680658 -0.16929229
000080 29 6f 91 3e 8b c4 c1 be 73 8f 86 be a3 93 e3 bd
       0.2840512 -0.37845263 -0.26281318 -0.11112144
000090 0f 7a e2 bd 4d 4e 0a be 48 a3 46 be c6 b5 18 be
       -0.11058437 -0.13506432 -0.19398224 -0.14913091
0000a0 bb 16 b1 3e 36 a8 4d be c9 9f 34 be 54 2c 5a 3e
       0.34587654 -0.20083699 -0.17639078 0.21305972
0000b0 c5 46 83 be e6 28 f8 3d 38 1d 7e be 2f a1 60 be
       -0.2563993 0.12117176 -0.24815834 -0.21936487
0000c0 ea 4f b9 3e be 3c 42 3e 8b dd 66 be 57 a4 81 3e
       0.36193782 0.18968484 -0.2254545 0.25320694
0000d0 79 eb 72 3e 4e a1 8b bc ad 11 95 3d 6d ca ee bc
       0.23722638 -0.01704469 0.07278762 -0.029149259
0000e0 da a4 6d be c1 59 a8 3e f6 b2 7f bc 22 f3 79 be
       -0.23207417 0.32880977 -0.015606632 -0.24409154
0000f0 ad a6 a2 3e 3c 87 81 be ff 0c 89 be 6f c1 80 be
       0.3176779 -0.25298488 -0.26767728 -0.25147578
000100 c4 f5 81 be 04 ff 6f 3e dc fa 44 be 6d 4a d8 3e
       -0.25382817 0.23437124 -0.1923632 0.42244282
000110 ea bd 05 3e 9d 26 05 be 1e e8 8d 3e e8 92 5d bd
       0.13060728 -0.13003011 0.27716154 -0.05409518
000120 45 8d a3 bd 8c 0d bd 3e 32 b1 71 3e cc 8d f2 bd
       -0.079859294 0.36924398 0.23602751 -0.11843452
000130 92 50 85 3e aa bc dc 3d 4a 07 af be 34 31 c3 bd
       0.26038033 0.10778172 -0.3418525 -0.09530869
000140 04 03 a6 be 58 b9 6f be 8a 5e 35 be dd 87 84 be
       -0.32424176 -0.23410547 -0.17711845 -0.25884905
000150 c4 18 6c 3e 33 86 89 be b6 18 a8 be 47 48 c1 be
       0.23056322 -0.26860198 -0.32831353 -0.37750456
000160 1a dc 0e 3e 76 13 ec bd 84 81 7c 3e 10 31 f8 3d
       0.1395115 -0.115271494 0.24658781 0.12118733
000170 66 8a a9 be b3 d1 d0 3b 4e 37 88 3c 70 e8 7e 3e
       -0.33113402 0.0063726543 0.016627934 0.24893355

output.bias f4 [3]
000000 19 87 4b bd 1d 05 ae bd 1d 84 85 bc
       -0.049689386 -0.08497069 -0.016298348
