models/squat_pytorch_model.pt (torch, 18176 bytes, 6 tensors)

layer1.weight f4 [64, 25]
0	0x3daed243	0.08536198
1	0x3e3926cd	0.18081208
2	0xbe135513	-0.14387922
3	0xbd84ee6d	-0.064907886
4	0xbc819df3	-0.015822386
5	0xbe1f904b	-0.15582387
6	0x3e22944a	0.1587688
7	0xbe473b7b	-0.19456284
8	0xbdcdda3a	-0.10051389
9	0x3d1959fa	0.037439324
10	0x3e386fda	0.18011418
11	0x3cebec4d	0.0287992
12	0x3e20aec0	0.15691662
13	0xbe1ca582	-0.15297511
14	0xbde79250	-0.11307204
15	0x3d239c1a	0.039943792
16	0x3df68de3	0.120387815
17	0x3dbddfad	0.092711784
18	0xbd7243f6	-0.059146844
19	0xbd42edff	-0.047590252
20	0x3c0bcd46	0.008532828
21	0x3cc1fe49	0.023680823
22	0x3de60b17	0.11232584
23	0xba64e83d	-0.0008732116
24	0xbdbfb319	-0.09360332
25	0xbe3ad6f8	-0.18246067
26	0x3e0ad87a	0.13559142
27	0x3d187e80	0.037230015
28	0xbe42d533	-0.19026642
29	0xbdf82f2d	-0.12118373
30	0xbe1e6ad5	-0.1547044
31	0xbcbfa39a	-0.023393441
32	0x3e2c3728	0.16817915
33	0xbe2e57b5	-0.17025645
34	0xb9326000	-0.00017011166
35	0xbe14c245	-0.14527233
36	0x3dc059c7	0.09392124
37	0x3d11138d	0.035419036
38	0x3cbd8c8d	0.023138309
39	0x3dcfc8b3	0.10145702
40	0xbd95ef87	-0.07321077
41	0xbd9243e3	-0.071418546
42	0x3e32441d	0.17408796
43	0x3e3ea8d6	0.18619093
44	0xbe069646	-0.13143262
45	0xbdf649db	-0.120258056
46	0xbdd74f75	-0.10513202
47	0xbe0797a4	-0.1324144
48	0xbe4c2267	-0.19934998
49	0x3e36802b	0.1782233
50	0xbd848520	-0.06470704
51	0x3daf4563	0.08558156
52	0x3caeb74d	0.021327639
53	0xbe411715	-0.18856461
54	0x3e42fe0f	0.19042228
55	0xbd638400	-0.055545807
56	0xbdd5c34d	-0.10437641
57	0xbe2f5627	-0.17122708
58	0xbdf7b893	-0.120957516
59	0x3dbc5450	0.09195769
60	0xbdb5f3f3	-0.0888442
61	0x3ddf46a7	0.10902148
62	0xbbf8029a	-0.0075686695
63	0xbac45800	-0.0014979839
64	0xbe18e2e0	-0.14930296
65	0x3e0014b0	0.12507892
66	0x3d518e07	0.05116084
67	0x3e21e228	0.15808928
68	0x3e70a9c9	0.23502268
69	0x3c4e8abb	0.012606318
70	0x3e43bb11	0.19114329
71	0x3def3d0c	0.11681566
72	0x3dd37b31	0.10326231
73	0xbd295bf9	-0.041347478
74	0x3e1237af	0.14279054
75	0x3df6b6a3	0.12046554
76	0xbdcfb5ed	-0.101421215
77	0x3dec29bd	0.115313984
78	0xbd197a60	-0.03747022
79	0xbdf49643	-0.11942723
80	0xbe199d8b	-0.15001504
81	0x3df7394a	0.12071474
82	0x3c08279a	0.008310223
83	0x3dae1a40	0.085011005
84	0x3de9a9fd	0.11409376
85	0xbdf9d67a	-0.12199111
86	0x3bb2ed00	0.0054603815
87	0xbe49acea	-0.19694868
88	0xbe11fd85	-0.14256866
89	0xbd743bd3	-0.059627365
90	0x3d5dac6d	0.054119516
91	0x3e0115df	0.12606
92	0xbdb747ea	-0.089492634
93	0xbd181693	-0.037130903
94	0xbe24f042	-0.16107276
95	0xbdd3f49d	-0.10349391
96	0x3e14e097	0.14538799
97	0x3db89613	0.090129994
98	0x3d5faed3	0.054610085
99	0x3e3ae0c2	0.18249801
100	0xbdc98523	-0.09839847
101	0x3e0dd2cf	0.13849948
102	0x3e0296ed	0.12752886
103	0x3ceb42b3	0.028718328
104	0x3db1bcbd	0.08678577
105	0x3e493c47	0.196519
106	0xbdff583a	-0.12468
107	0xbe22e8b8	-0.15909088
108	0x3e3e6b22	0.18595555
109	0x3e332e3d	0.17498107
110	0x3e3efbe3	0.18650775
111	0x3e18c463	0.14918666
112	0xbc9577cd	-0.018245602
113	0xbd2d6d5a	-0.042340614
114	0xbe28b597	-0.16475521
115	0x3d74487a	0.05963943
116	0xbe1a115f	-0.15045689
117	0x3ce0800d	0.02740481
118	0xbb4fe393	-0.0031721338
119	0xbdc8bd49	-0.09801728
120	0x3d6ab18b	0.057298224
121	0x3e4578f0	0.19284415
122	0xbe115872	-0.14193895
123	0xbe1b1c06	-0.15147409
124	0x3ddf5145	0.10904173
125	0xbe05c9fb	-0.1306533
126	0xbdfe5143	-0.12417843
127	0xbe181262	-0.14850762
128	0x3cb3aea7	0.021933867
129	0xbcee7067	-0.029106332
130	0xbb052e67	-0.0020321847
131	0xbdb283c3	-0.08716538
132	0xbd7835ed	-0.060598303
133	0x3d04c467	0.032413866
134	0x3debfc4d	0.11522732
135	0x3d55882d	0.05213182
136	0xbd501ca7	-0.050808575
137	0x3dce468a	0.10072048
138	0xbdc86960	-0.09785724
139	0x3e3110fb	0.17291634
140	0x3e18f4a0	0.14937067
141	0x3c45c580	0.012071013
142	0x3dd78983	0.10524275
143	0x3ddb3d8a	0.10705097
144	0x3e0e5627	0.13900052
145	0xbe3aace7	-0.1823002
146	0x3db55d0d	0.08855639
147	0xbe304b7d	-0.17216296
148	0xbd404e60	-0.046949744
149	0xbd5a5aad	-0.05330913
150	0x3d08965a	0.03334651
151	0xbdfef5e7	-0.12449246
152	0x3d98b81d	0.07456992
153	0x3d8844da	0.066537574
154	0xbe3cc137	-0.1843308
155	0xbd60df5a	-0.054900505
156	0x3c4e2680	0.012582421
157	0x3e04a84a	0.12954822
158	0x3de81f07	0.11334043
159	0xbd81f08d	-0.063447095
160	0xbe442e00	-0.19158173
161	0xbd81309d	-0.063081004
162	0xbd81aa5d	-0.06331322
163	0xbdf2e62a	-0.118603066
164	0x3de383a7	0.11109095
165	0xbde0ed33	-0.10982742
166	0xbda0cfa0	-0.07852101
167	0xbc6c41e7	-0.014420009
168	0x3e184c5e	0.14872882
169	0xbd9b4756	-0.075819656
170	0x3e4aded9	0.19811572
171	0x3d6ea48a	0.058262385
172	0x3d14e9d5	0.036355812
173	0xbd8c44e6	-0.06849079
174	0x3d60a012	0.054840155
175	0x3e233767	0.15939103
176	0x3e26a09f	0.1627221
177	0x3d53908d	0.051651526
178	0x3dabc910	0.08387959
179	0xbe2ac5cf	-0.1667702
180	0xbd061ae7	-0.0327405
181	0xbe29f04d	-0.16595574
182	0x3e1e752d	0.15474387
183	0x3da411fd	0.080112435
184	0x3dfb3847	0.122665934
185	0xbdba0b53	-0.09084191
186	0x3e1fc090	0.156008
187	0x3dfd8b90	0.12380135
188	0xbe1734b7	-0.14766203
189	0xbd1d78ba	-0.038445212
190	0xbe1845ab	-0.14870326
191	0x3e4b8e37	0.1987847
192	0xbe07ccd7	-0.13261734
193	0xbd133f13	-0.035948824
194	0xbde8b081	-0.113617904
195	0x3c8f51ef	0.017495124
196	0x3e7788f5	0.24173339
197	0x3c3c7a59	0.011503779
198	0x3d9ac851	0.075577386
199	0x3dca101e	0.09866355
200	0x3e19beb7	0.15014158
201	0xbd855d13	-0.06511893
202	0x3dee716d	0.11642728
203	0x3e341b55	0.17588551
204	0x3d901cfd	0.07036779
205	0x3dba18b7	0.09086745
206	0xbcbbfb33	-0.02294693
207	0x3dc08940	0.09401178
208	0x3d9067ca	0.07051046
209	0xbd8bacba	-0.06820054
210	0xbd8fd3ba	-0.070228055
211	0xbe354780	-0.17703056
212	0x3e30d7b0	0.17269778
213	0xbdb7762d	-0.08958087
214	0xbd165307	-0.036700275
215	0xbdfa48e3	-0.12220933
216	0xbc36da67	-0.01116047
217	0xbbacdd67	-0.0052754167
218	0xbda01c14	-0.078178555
219	0xbcffea7b	-0.031239739
220	0xbdd80e2a	-0.105495766
221	0xbd945a78	-0.07243818
222	0xbe03ced1	-0.12871863
223	0xbd797399	-0.06090126
224	0xbde9636e	-0.11395918
225	0x3cc3a39a	0.023881722
226	0xbd8103ba	-0.06299539
227	0xbe2e72ad	-0.17035933
228	0xbd9b1ca3	-0.075738214
229	0x3cd32d40	0.025778413
230	0x3b811b67	0.003940034
231	0xbe0b019f	-0.13574837
232	0x3de6113a	0.112337545
233	0xbc975133	-0.018471336
234	0xbddd19a3	-0.107959054
235	0x3cf912da	0.030404497
236	0xbdcb5070	-0.099274516
237	0xbd0f8680	-0.03504038
238	0x3b205533	0.0024464845
239	0xbda81b40	-0.082083225
240	0x3ca6dd73	0.020369267
241	0x3de933c3	0.11386826
242	0xbe17825d	-0.14795823
243	0x3cf71b90	0.03016451
244	0x3d0e9d33	0.034817886
245	0x3dba3a99	0.09093208
246	0xbc5260c8	-0.012840457
247	0xbe44ef60	-0.1923194
248	0xbd0e8a69	-0.034799967
249	0xbdb36e00	-0.08761215
250	0x3e063a9d	0.13108297
251	0xbe2e46ed	-0.17019244
252	0x3e13ce9d	0.14434285
253	0xbbde0100	-0.0067750216
254	0x3e306aa2	0.17228177
255	0x3dd04c43	0.10170796

layer1.bias f4 [64]
0	0xbe343180	-0.17597008
1	0xbca37daa	-0.019957382
2	0xbdd4cafe	-0.1039028
3	0xbe069735	-0.13143618
4	0xbcf4c40c	-0.029878639
5	0xbe4105d7	-0.18849884
6	0xbc0e06ef	-0.008668645
7	0xbe0de30f	-0.13856147
8	0xbc13a822	-0.009012254
9	0x3cdc2a59	0.026875662
10	0x3d255f3a	0.04037402
11	0xbd350f09	-0.04420379
12	0xbd1825ca	-0.037145413
13	0x3e3fafe0	0.18719435
14	0x3d2ae1a4	0.041719094
15	0x3e0e8f18	0.13921773
16	0x3da4d4f3	0.08048429
17	0xbe2f027f	-0.17090796
18	0xbdb6d760	-0.08927798
19	0x3d011df5	0.03152271
20	0x3e152eb6	0.145686
21	0x3cfb7ac3	0.030698186
22	0xbdc754c9	-0.09732968
23	0xbca6559a	-0.02030449
24	0xbe49b271	-0.19696976
25	0x3cd37f07	0.025817407
26	0xbdaf279e	-0.08552478
27	0x3db657e3	0.08903482
28	0xbe83ed2e	-0.2576689
29	0x3e1b9b10	0.1519587
30	0xbcb09bec	-0.021558724
31	0x3d1c73c9	0.03819636
32	0xbe2bdd41	-0.1678362
33	0x3d5e885b	0.054329257
34	0x3dba72d6	0.091039345
35	0x3dd198b6	0.102342054
36	0xbdaa7bc0	-0.08324385
37	0x3e0a35b7	0.13497053
38	0xbd585fc7	-0.052825715
39	0xbe3fb31d	-0.1872067
40	0x3d8601a6	0.06543283
41	0xbe45c233	-0.19312362
42	0xbe38a5a6	-0.1803194
43	0x3d299238	0.04139921
44	0x3e6f2528	0.23354018
45	0x3d1f156a	0.03883878
46	0x3d2aa35e	0.041659705
47	0x3dd1e6ec	0.10249123
48	0x3e013564	0.12618023
49	0x3d6deb42	0.058085687
50	0x3e392132	0.1807907
51	0xbc19a45e	-0.009377567
52	0xbe352cb1	-0.1769283
53	0xbe04e9fc	-0.12979883
54	0xbceed15a	-0.029152561
55	0x3defc6d1	0.11707843
56	0xbdb680eb	-0.08911308
57	0x3da28e61	0.07937313
58	0x3e73c296	0.23804697
59	0xbdc2cfaa	-0.09512265
60	0xbe030240	-0.12793827
61	0x3e3ab097	0.18231426
62	0xbda52a17	-0.080646686
63	0x3b83dd69	0.004024197

layer2.weight f4 [32, 64]
0	0xbccb4ec0	-0.024817824
1	0x3c6f6518	0.014611505
2	0x3e3c2b7d	0.18375964
3	0x3db3c8d4	0.08778539
4	0xbc555e83	-0.013023022
5	0x3d3a5bd0	0.045497715
6	0xbd22e4ec	-0.0397691
7	0x3dd4c468	0.10389024
8	0xbd643979	-0.055718873
9	0x3d53abf7	0.05167767
10	0xbcd71f6e	-0.026260104
11	0x3e66eaf9	0.22550572
12	0xbd7b6661	-0.061376933
13	0xbdc8303d	-0.09774826
14	0x3d98e185	0.074648894
15	0x3d556626	0.05209937
16	0xbc62046a	-0.013794998
17	0x3d192398	0.03738746
18	0x3e24f11f	0.16107605
19	0x3d78111c	0.06056319
20	0x3d21cc23	0.03950132
21	0xbc1e834a	-0.009674856
22	0x3e037d7e	0.1284084
23	0x3d6ee777	0.05832621
24	0x3d10a326	0.03531184
25	0x3e279d39	0.1636857
26	0x3da8c28d	0.082402326
27	0xbd81c136	-0.0633568
28	0x3d085a7d	0.03328942
29	0x3d70086f	0.058601793
30	0x3e0ed225	0.13947351
31	0x3e49427c	0.19654268
32	0xbbe748f2	-0.0070582563
33	0x3dbf3e30	0.09338033
34	0x3d6b106c	0.057388708
35	0x3e2c136f	0.16804288
36	0xbc8ac6c2	-0.016940478
37	0xbb80a0a1	-0.0039253985
38	0x3e0ab8df	0.13547085
39	0xbd56f71d	-0.05248176
40	0x3e505256	0.20343909
41	0x3d38b5d9	0.0450953
42	0xbc542e51	-0.012950496
43	0x3c354af1	0.011065231
44	0xbd9f4af8	-0.07777971
45	0xbbacee46	-0.005277428
46	0x3deefd61	0.11669422
47	0x3d9b66ea	0.07587989
48	0xbd8bc4d4	-0.06824651
49	0x3dbc013a	0.091799214
50	0xbd307030	-0.04307574
51	0x3e196cfa	0.14982978
52	0x3dcfbf9f	0.10143971
53	0x3cfe5065	0.031044194
54	0x3dc1e14d	0.09466801
55	0xbc4add8e	-0.012381924
56	0x3d8b35f9	0.06797404
57	0x3d75de35	0.060026366
58	0x3db1c8ae	0.08680855
59	0x3d2d6fba	0.04234288
60	0x3d7bab9a	0.06144295
61	0x3e5439b0	0.20725131
62	0x3dac714f	0.084200494
63	0xbd1df6c3	-0.03856541
64	0x3db317cb	0.087447725
65	0xbdb9bb8a	-0.09068973
66	0x3db71207	0.08938985
67	0xbce9eaf8	-0.028554425
68	0x3b3c20d0	0.0028706081
69	0x3d9568a6	0.07295351
70	0x3d85a05a	0.06524725
71	0x3dbb5e3e	0.09148835
72	0x3d500853	0.05078919
73	0xbe0f1a62	-0.13974908
74	0x3dbfaff4	0.09359732
75	0xbd2213a2	-0.039569505
76	0xbde158f6	-0.11003296
77	0x3d82e471	0.06391228
78	0xbdbba985	-0.09163193
79	0x3dc537fe	0.0962982
80	0xbd053a4a	-0.032526292
81	0x3d61fd84	0.055173412
82	0xbda547a5	-0.08070306
83	0x3daa21fb	0.083072625
84	0xbadc502f	-0.0016808565
85	0x3d8b7c65	0.06810836
86	0xbd4f1572	-0.05055756
87	0x3cb9515b	0.022621801
88	0xbdef6e88	-0.11691004
89	0xbcb18306	-0.021668922
90	0x3cc8b9af	0.024502603
91	0xbdfae5a1	-0.122508295
92	0xbd6f8933	-0.058480453
93	0x3cea77bd	0.028621549
94	0xbe0b344c	-0.13594168
95	0xbdde8d03	-0.108667396
96	0xbb4665b2	-0.0030273017
97	0xbde4d69e	-0.111737475
98	0x3ca0a63a	0.019610513
99	0x3bcd3acc	0.0062631126
100	0xbcab9366	-0.020944308
101	0xbe039532	-0.12849882
102	0xbd051dcb	-0.032499116
103	0xbe0f3477	-0.13984857
104	0xbd59ed2c	-0.0532047
105	0xbe23a70c	-0.15981692
106	0x3d34aeaf	0.044111904
107	0x3b87ba48	0.0041420795
108	0xbdc54f1c	-0.096342295
109	0x3de6f4da	0.112771705
110	0x3d3c6939	0.045998786
111	0xbd72f846	-0.059318803
112	0x3ca71908	0.020397678
113	0x3da25031	0.079254515
114	0x3cc33430	0.023828596
115	0xbdeeb413	-0.1165544
116	0x3d2c8fdf	0.042129394
117	0xbe0799c2	-0.13242248
118	0xbd5ff3db	-0.054675918
119	0xbe13640d	-0.14393635
120	0xbbea1550	-0.007143654
121	0x3a8c4701	0.0010702313
122	0x3d4421cc	0.047883794
123	0x3d3bfa58	0.045893043
124	0x3dfb9c1e	0.12285636
125	0xbc195ac4	-0.009360019
126	0x3d1fc2b9	0.03900406
127	0x3d134c6a	0.035961546
128	0xbdc22c78	-0.09481138
129	0x3dc54d6f	0.0963391
130	0xbdd157fd	-0.102218606
131	0xbde09cba	-0.10967393
132	0x3dea9844	0.114548236
133	0xbc70ede0	-0.014705151
134	0xbd5de427	-0.05417266
135	0x3d79c9ed	0.060983587
136	0x3d0746b5	0.033026416
137	0xbc9e8cee	-0.01935431
138	0x3dfe40ca	0.12414701
139	0xbdf0fe90	-0.11767304
140	0x3d9f8f87	0.077910475
141	0xbde4c962	-0.11171223
142	0xbdab3cfb	-0.083612405
143	0xbd3eb3e7	-0.046558287
144	0x3df173dd	0.11789677
145	0xbd8bfd1c	-0.06835386
146	0xbd230076	-0.03979536
147	0xbc524997	-0.012834928
148	0xbddb4282	-0.10706045
149	0xbddc7ce5	-0.10766009
150	0x3d904fa9	0.07046444
151	0x3d60d6e8	0.05489245
152	0x3db8ef0f	0.09029972
153	0x3da3cd18	0.07998103
154	0x3dd35946	0.10319762
155	0x3c948b85	0.018132934
156	0x3d95b70b	0.07310303
157	0xbd9107a0	-0.070815325
158	0x3dce92ec	0.10086617
159	0xbd2e457d	-0.042546738
160	0x3da288b1	0.07936228
161	0xbd498283	-0.04919673
162	0xbd8d30fe	-0.0689411
163	0xbcaf03e1	-0.021364154
164	0x3d863e5e	0.06554864
165	0xbe01aa5f	-0.12662648
166	0xbd39f6d0	-0.045401394
167	0xbd36059b	-0.04443894
168	0x3d84c3ae	0.064826354
169	0xbd08d46c	-0.033405706
170	0x3dc58e81	0.09646321
171	0xbd833d27	-0.06408148
172	0x3cec509c	0.028847031
173	0x3d89e5d8	0.06733292
174	0x3cecb3da	0.028894354
175	0x3b88c5a8	0.004173953
176	0xbd7f6175	-0.0623488
177	0xbd130632	-0.03589458
178	0x3d110133	0.035401534
179	0xbdc0fe58	-0.09423512
180	0x3d850501	0.06495095
181	0xbda19a52	-0.078907624
182	0xbdbde13e	-0.09271477
183	0xbcf543b6	-0.029939514
184	0x3bfd039c	0.0077213775
185	0xbc8eaeeb	-0.017417392
186	0xbd4d0d70	-0.050061643
187	0x3d795414	0.0608712
188	0x3ccb80e1	0.024841728
189	0x3da70226	0.08154707
190	0x3c2daea5	0.0106007205
191	0xbd9f3fbe	-0.0777583
192	0xbd74804a	-0.05969266
193	0x3d786db1	0.060651485
194	0x3d003acc	0.031306073
195	0x3db2c302	0.08728601
196	0xbdb63b2d	-0.08898006
197	0xbd44e3dc	-0.048068866
198	0xbda69376	-0.08133595
199	0xbd6088dd	-0.054818023
200	0x3c2d2cf6	0.010569802
201	0xbd396ec0	-0.045271635
202	0xbdbcc3cf	-0.09217035
203	0x3d53a338	0.05166933
204	0xbd53c3dc	-0.051700458
205	0xbe152a7d	-0.14566989
206	0xbd3b1be5	-0.0456809
207	0xbca9f038	-0.020744428
208	0x3d91b024	0.07113674
209	0xbddbb2c6	-0.10727458
210	0xbd811ca0	-0.06304288
211	0x3ae94795	0.0017797822
212	0xbe0c6614	-0.13710815
213	0x3d86ac7c	0.065758675
214	0xbd60b064	-0.05485572
215	0xbe02e0fa	-0.12781134
216	0xbdf2403e	-0.118286595
217	0x3caf04bd	0.021364564
218	0xbdcb8fda	-0.09939547
219	0xbe16198c	-0.14658183
220	0x3d87a324	0.066229135
221	0x3d8613dc	0.065467566
222	0xbc64647b	-0.013939972
223	0xbe0b233f	-0.13587664
224	0xbc8da671	-0.01729128
225	0xbc4dc6fb	-0.012559648
226	0x3d4eae28	0.050459057
227	0x3d816e1f	0.06319832
228	0xbdb63e18	-0.08898562
229	0x3a421cbc	0.00074047945
230	0xbe2a601d	-0.16638227
231	0xbd8be1c0	-0.06830168
232	0x3d81ea21	0.06343485
233	0xbb42ca74	-0.0029722722
234	0x3dc05445	0.09391073
235	0xbd23919c	-0.039933786
236	0xbd397c0e	-0.045284323
237	0xbc6f9865	-0.014623736
238	0xbd8ff310	-0.07028782
239	0x3d483dac	0.04888694
240	0xbe09341d	-0.13398786
241	0xbe01f757	-0.12692009
242	0x3d32d9cc	0.04366474
243	0xbdd64cb0	-0.10463846
244	0xbda97944	-0.08275083
245	0x3d37c276	0.044863187
246	0x3c19215c	0.009346332
247	0xbc5b9375	-0.013401856
248	0xbd14b37d	-0.036303986
249	0xbb46cadb	-0.0030333314
250	0xbdd74967	-0.10512047
251	0xbba4e535	-0.0050322064
252	0x3dc3a9d7	0.09553879
253	0x3d206704	0.039160743
254	0xbde5f250	-0.11227858
255	0x3b852394	0.004063079

layer2.bias f4 [32]
0	0xbc9f617b	-0.019455662
1	0xbcfe5284	-0.031045206
2	0xbde04069	-0.10949785
3	0x3be29084	0.0069142003
4	0x3dea1790	0.114302754
5	0xbc17bf87	-0.009261972
6	0xbdeee867	-0.11665421
7	0x3de951b8	0.1139254
8	0x3e27e233	0.16394882
9	0xbd56a0cc	-0.05239944
10	0xbca71d81	-0.02039981
11	0xbd2ad69f	-0.041708585
12	0x3db262ce	0.08710252
13	0xbdcb4be1	-0.09926582
14	0xbd5a96d6	-0.053366505
15	0x3d4c57e3	0.049888503
16	0x3e3d55cf	0.18489765
17	0x3e03369d	0.12813802
18	0xbd842f85	-0.06454376
19	0x3d4464c0	0.047947645
20	0x3cb17ca7	0.021665884
21	0x3dc2e3cc	0.09516105
22	0x3d92121b	0.071323596
23	0xbdd58c51	-0.10427154
24	0x3e12536d	0.14289637
25	0x3d85995b	0.06523391
26	0x3e04cd57	0.12968956
27	0x3dcf0868	0.10109025
28	0x3e13e26b	0.1444184
29	0x3d4cc856	0.049995743
30	0x3dd3746b	0.10324939
31	0xbe0cf4dd	-0.13765283

output.weight f4 [3, 32]
0	0xbdc4c970	-0.09608734
1	0x3d1ccc35	0.038280685
2	0x3c959ebe	0.01826417
3	0x3d877a3a	0.0661511
4	0xbe3bb588	-0.18330967
5	0x3e130e92	0.14361027
6	0x3d66a7c2	0.05631233
7	0x3d38fee4	0.045164958
8	0xbdedf619	-0.11619205
9	0x3cb66da7	0.022269083
10	0x3e20b09a	0.15692368
11	0x3d1c793a	0.03820155
12	0xbdfcb5d3	-0.12339368
13	0xbe21c2c7	-0.15796958
14	0xbdabdc63	-0.08391645
15	0x3d9e2fcc	0.0772396
16	0xbe6ea399	-0.23304595
17	0xbe2599ce	-0.16171953
18	0xbd19e857	-0.037575092
19	0x3bc51dd8	0.0060155205
20	0x3dadbf9f	0.084838144
21	0xbda9adf1	-0.0828513
22	0x3d29ac8e	0.041424327
23	0x3e310cdd	0.17290063
24	0xbd80babc	-0.06285617
25	0x3c3e2744	0.011606041
26	0xbd0f3fe7	-0.03497305
27	0xbd8ded5d	-0.06930039
28	0xbe411588	-0.1885587
29	0x3e1f7e83	0.15575604
30	0xbe4c60a7	-0.19958745
31	0x3e089728	0.13338912
32	0x3d4a9650	0.049459755
33	0xbdebcad2	-0.11513294
34	0xbd17f3ff	-0.037097927
35	0xbd0309ab	-0.031991642
36	0x3d0cfeaf	0.034422573
37	0x3e5de8de	0.21670863
38	0xbce95beb	-0.028486213
39	0x3e0d995f	0.13828038
40	0x3da1cf3b	0.07900854
41	0xbd8072f8	-0.062719285
42	0x3e3b4e59	0.18291606
43	0x3d6327fd	0.055458058
44	0x3d9d3783	0.07676604
45	0x3cba1dd7	0.022719307
46	0x3cad8a4e	0.021184113
47	0x3b84e299	0.004055333
48	0x3d8af832	0.06785621
49	0x3d727ae5	0.059199233
50	0x3e583b1f	0.21116303
51	0xbdc86135	-0.09784166
52	0xbc3961eb	-0.011314849
53	0x3df56f78	0.119841516
54	0x3da7681f	0.081741564
55	0x3c19f8e2	0.009397717
56	0x3e3d0915	0.18460496
57	0x3deb336f	0.114844196
58	0x3e4134e4	0.18867832
59	0x3da41e85	0.08013634
60	0x3b701b58	0.0036637392
61	0x3d2c9335	0.042132575
62	0x3d768a48	0.06019047
63	0x3a1121ae	0.00055363297
64	0x3af0192c	0.0018318049
65	0x3d69262c	0.05692117
66	0x3db5b08b	0.088715635
67	0x3ace0cf1	0.001572041
68	0x3e20c0de	0.15698573
69	0xbe1c852b	-0.15285175
70	0x3dabad56	0.083826706
71	0xbe100405	-0.14064033
72	0xbdb0f53c	-0.08640525
73	0xbbea70e5	-0.0071545714
74	0xbe25db98	-0.1619705
75	0xbe0b1d28	-0.13585341
76	0xbd251aaf	-0.04030865
77	0xbe285e84	-0.16442305
78	0xbe1444c3	-0.14479356
79	0x3d37ba14	0.044855192
80	0x3db2f20a	0.087375715
81	0x3ac9b9e2	0.001539048
82	0xbe0bda4b	-0.13657491
83	0xbdc44672	-0.09583749
84	0x3dd68f92	0.104766026
85	0xbdc16ad9	-0.09444208
86	0xbddccd70	-0.107813716
87	0xbdce3299	-0.100682445
88	0x3ddd8047	0.108154826
89	0xbe1148ee	-0.14187977
90	0xbbc957b2	-0.0061444873
91	0xbdaee18e	-0.08539115
92	0xbd2a60f2	-0.04159636
93	0xbe220994	-0.15823966
94	0x3c56419d	0.013077167
95	0xbde336e9	-0.11094458

output.bias f4 [3]
0	0xbddb50a9	-0.10708744
1	0xbd2cda8c	-0.04220061
2	0x3da5d709	0.08097655
